#loc = loc("/home/yaoshi16ultra/workspace/tests/triton/python/test_add.py":12:1)
#loc16 = loc("t_ptr"(#loc))
#loc17 = loc("x_ptr"(#loc))
#loc18 = loc("y_ptr"(#loc))
#loc19 = loc("output_ptr"(#loc))
#loc20 = loc("n_elements"(#loc))
module {
  tt.func public @add_kernel(%t_ptr: !tt.ptr<f32> {tt.divisibility = 16 : i32} loc("t_ptr"(#loc)), %x_ptr: !tt.ptr<f32> {tt.divisibility = 16 : i32} loc("x_ptr"(#loc)), %y_ptr: !tt.ptr<f32> {tt.divisibility = 16 : i32} loc("y_ptr"(#loc)), %output_ptr: !tt.ptr<f32> {tt.divisibility = 16 : i32} loc("output_ptr"(#loc)), %n_elements: i32 {tt.divisibility = 16 : i32} loc("n_elements"(#loc))) attributes {noinline = false} {
    %c1024_i32 = arith.constant 1024 : i32 loc(#loc1)
    %pid = tt.get_program_id x : i32 loc(#loc21)
    %alpha = tt.load %t_ptr : !tt.ptr<f32> loc(#loc22)
    %block_start = arith.muli %pid, %c1024_i32 : i32 loc(#loc23)
    %offsets = tt.make_range {end = 1024 : i32, start = 0 : i32} : tensor<1024xi32> loc(#loc24)
    %offsets_0 = tt.splat %block_start : i32 -> tensor<1024xi32> loc(#loc25)
    %offsets_1 = arith.addi %offsets_0, %offsets : tensor<1024xi32> loc(#loc25)
    %mask = tt.splat %n_elements : i32 -> tensor<1024xi32> loc(#loc26)
    %mask_2 = arith.cmpi slt, %offsets_1, %mask : tensor<1024xi32> loc(#loc26)
    %x = tt.splat %x_ptr : !tt.ptr<f32> -> tensor<1024x!tt.ptr<f32>> loc(#loc27)
    %x_3 = tt.addptr %x, %offsets_1 : tensor<1024x!tt.ptr<f32>>, tensor<1024xi32> loc(#loc27)
    %x_4 = tt.load %x_3, %mask_2 : tensor<1024x!tt.ptr<f32>> loc(#loc28)
    %y = tt.splat %y_ptr : !tt.ptr<f32> -> tensor<1024x!tt.ptr<f32>> loc(#loc29)
    %y_5 = tt.addptr %y, %offsets_1 : tensor<1024x!tt.ptr<f32>>, tensor<1024xi32> loc(#loc29)
    %y_6 = tt.load %y_5, %mask_2 : tensor<1024x!tt.ptr<f32>> loc(#loc30)
    %output = tt.splat %alpha : f32 -> tensor<1024xf32> loc(#loc31)
    %output_7 = arith.mulf %y_6, %output : tensor<1024xf32> loc(#loc31)
    %output_8 = arith.addf %x_4, %output_7 : tensor<1024xf32> loc(#loc32)
    %0 = tt.splat %output_ptr : !tt.ptr<f32> -> tensor<1024x!tt.ptr<f32>> loc(#loc14)
    %1 = tt.addptr %0, %offsets_1 : tensor<1024x!tt.ptr<f32>>, tensor<1024xi32> loc(#loc14)
    tt.store %1, %output_8, %mask_2 : tensor<1024x!tt.ptr<f32>> loc(#loc15)
    tt.return loc(#loc)
  } loc(#loc)
} loc(#loc)
#loc1 = loc(unknown)
#loc2 = loc("/home/yaoshi16ultra/workspace/tests/triton/python/test_add.py":22:11)
#loc3 = loc("/home/yaoshi16ultra/workspace/tests/triton/python/test_add.py":27:13)
#loc4 = loc("/home/yaoshi16ultra/workspace/tests/triton/python/test_add.py":28:19)
#loc5 = loc("/home/yaoshi16ultra/workspace/tests/triton/python/test_add.py":29:29)
#loc6 = loc("/home/yaoshi16ultra/workspace/tests/triton/python/test_add.py":29:15)
#loc7 = loc("/home/yaoshi16ultra/workspace/tests/triton/python/test_add.py":31:12)
#loc8 = loc("/home/yaoshi16ultra/workspace/tests/triton/python/test_add.py":34:17)
#loc9 = loc("/home/yaoshi16ultra/workspace/tests/triton/python/test_add.py":34:9)
#loc10 = loc("/home/yaoshi16ultra/workspace/tests/triton/python/test_add.py":35:17)
#loc11 = loc("/home/yaoshi16ultra/workspace/tests/triton/python/test_add.py":35:9)
#loc12 = loc("/home/yaoshi16ultra/workspace/tests/triton/python/test_add.py":36:18)
#loc13 = loc("/home/yaoshi16ultra/workspace/tests/triton/python/test_add.py":36:14)
#loc14 = loc("/home/yaoshi16ultra/workspace/tests/triton/python/test_add.py":38:14)
#loc15 = loc("/home/yaoshi16ultra/workspace/tests/triton/python/test_add.py":38:5)
#loc21 = loc("pid"(#loc2))
#loc22 = loc("alpha"(#loc3))
#loc23 = loc("block_start"(#loc4))
#loc24 = loc("offsets"(#loc5))
#loc25 = loc("offsets"(#loc6))
#loc26 = loc("mask"(#loc7))
#loc27 = loc("x"(#loc8))
#loc28 = loc("x"(#loc9))
#loc29 = loc("y"(#loc10))
#loc30 = loc("y"(#loc11))
#loc31 = loc("output"(#loc12))
#loc32 = loc("output"(#loc13))